conversion_output/model.onnx (onnx, 226545 bytes, 18 tensors)

features.1.block.1.fc1.bias f4 [8]
0	0xb0ebc877	-1.7155476e-09
1	0xb11ed64f	-2.3113846e-09
2	0xb92b1c41	-0.00016318356
3	0xb100b9ac	-1.8731994e-09
4	0xb0b0c6ed	-1.2862224e-09
5	0x32964244	1.7492432e-08
6	0xb1c1ef9e	-5.6442806e-09
7	0x2ed436eb	9.650399e-11

features.1.block.1.fc2.bias f4 [16]
0	0x3f10cdfa	0.56564295
1	0x3f244598	0.6416869
2	0x3ec4ee8d	0.3846325
3	0xbf93b302	-1.1539004
4	0xbf3a16cd	-0.7269104
5	0x3fad1120	1.3520851
6	0xbec32703	-0.381157
7	0xbefaf269	-0.4901307
8	0x3f10e16a	0.56593955
9	0xbeab733a	-0.33486348
10	0x3f24b44f	0.6433763
11	0xbe6d5214	-0.23175842
12	0xbed562eb	-0.4167703
13	0xbdcb780b	-0.09935006
14	0x3e30a84c	0.172517
15	0xbeb13c87	-0.3461649

features.4.block.2.fc1.bias f4 [24]
0	0xb1484930	-2.9145433e-09
1	0xb1d8bb25	-6.3077032e-09
2	0xb0a1fd49	-1.178628e-09
3	0xb1909624	-4.2080206e-09
4	0xb1124151	-2.1282924e-09
5	0xb1a411d3	-4.7750546e-09
6	0xb15e0958	-3.2310563e-09
7	0x31f3981c	7.0895236e-09
8	0xaf919b8e	-2.6485875e-10
9	0xb1cb27ae	-5.9125886e-09
10	0x3e52954e	0.20564768
11	0xb10400a1	-1.9208886e-09
12	0xb185dc18	-3.895831e-09
13	0xb2f39a28	-2.8359025e-08
14	0x304897c2	7.2975237e-10
15	0xafbcf0c4	-3.4368075e-10
16	0xb0faa00a	-1.823538e-09
17	0xb1997821	-4.466543e-09
18	0xb08c55db	-1.0210742e-09
19	0xb0ae45e3	-1.2680029e-09
20	0x3120287a	2.3306073e-09
21	0xb210be00	-8.425104e-09
22	0xb18a4253	-4.023869e-09
23	0xaef69e33	-1.1214887e-10

features.5.block.2.fc1.bias f4 [64]
0	0xbc276aeb	-0.010218362
1	0x3e94c7b0	0.290586
2	0x3c9a1fff	0.018814085
3	0x3de2a6e3	0.11066987
4	0x3e0ece17	0.13945805
5	0x3ddd9390	0.10819161
6	0x3e5aa0d5	0.21350415
7	0x3dfeb0ba	0.12436052
8	0xbe0d32be	-0.13788888
9	0xbdcf6f38	-0.10128635
10	0x3e578f0d	0.21050663
11	0x3e3de88f	0.18545745
12	0xbeb466bd	-0.35234633
13	0xbdb87d23	-0.09008243
14	0x3de199a4	0.11015633
15	0x3cf21778	0.029552206
16	0xbd2aa12a	-0.041657604
17	0x3ecdf4a4	0.40225708
18	0x3df6c993	0.12050166
19	0xbcafbce7	-0.02145238
20	0x3d8ffac0	0.07030249
21	0x3d087c07	0.033321407
22	0x3e0158b1	0.1263149
23	0x3ee5f67e	0.4491462
24	0x3d947b21	0.072500475
25	0x3e18e2bf	0.14930247
26	0x3e25f34a	0.16206089
27	0xbb3a0723	-0.0028385601
28	0x3e5218dd	0.20517297
29	0xbd17eeb2	-0.037092872
30	0xbe1960b9	-0.14978303
31	0x3e175043	0.14776711
32	0xbdaf2369	-0.08551676
33	0xbc31989c	-0.010839608
34	0x3dbf8992	0.09352411
35	0x3dc067f0	0.093948245
36	0xbd156f2b	-0.03648297
37	0x3e8faee4	0.28063118
38	0xbc8d986b	-0.017284593
39	0xbd8e720f	-0.06955349
40	0x3f1548a2	0.58313954
41	0x3e6c1de1	0.23058273
42	0x3e552388	0.20814335
43	0x3ddf552b	0.109049164
44	0x3e9f4462	0.3110686
45	0x3ce6e462	0.028185073
46	0xbdb34a9e	-0.087544665
47	0x3d1f9010	0.038955748
48	0xbcd2c753	-0.02572981
49	0x3e1bb23c	0.1520471
50	0xbdb75282	-0.08951284
51	0x3d89ce8e	0.0672885
52	0x3cc74bf8	0.024328217
53	0x3c102d35	0.008799841
54	0x3e5b6176	0.21423897
55	0x3e0a8edc	0.13531059
56	0xbd20e4a2	-0.03928054
57	0x3d424024	0.04742445
58	0x3f0ae5ae	0.54256713
59	0x3e74e512	0.23915508
60	0x3d6adb1a	0.057337858
61	0x3d909876	0.070603296
62	0xbcab670f	-0.020923166
63	0x3e0c29d4	0.13687831

features.6.block.2.fc1.bias f4 [64]
0	0x3bcfce20	0.0063417107
1	0x3da1303f	0.0787053
2	0xbd48aacf	-0.04899102
3	0x3e690ba3	0.22758345
4	0x3e0feec5	0.14055927
5	0x3e2a4dfe	0.16631314
6	0x3c92e542	0.017931584
7	0xbd064f31	-0.032790367
8	0x3e3f79c3	0.18698792
9	0x3e93b52f	0.2884917
10	0x3d8d97fe	0.06913756
11	0x3e0af4e9	0.13569988
12	0x3df89853	0.121384285
13	0x3dae98dc	0.08525249
14	0xbb9a0934	-0.004700804
15	0xbd1d5526	-0.038411282
16	0x3c98382e	0.018581476
17	0x3e5adf80	0.21374321
18	0x3eb56f7c	0.35436618
19	0x3ea0c990	0.3140378
20	0xbd41e2aa	-0.047335304
21	0x3e1de68d	0.1541998
22	0x3d8ab2b7	0.067723684
23	0x3e1713ad	0.147536
24	0xbd9d3c9b	-0.07677575
25	0x3e7dec1b	0.24797098
26	0x3d947ea9	0.07250721
27	0xb9e3db68	-0.00043460284
28	0x3d8b013a	0.06787343
29	0x3e657494	0.22407752
30	0xbe1af7b0	-0.15133548
31	0x3d149671	0.036276285
32	0xbd714c6b	-0.05891077
33	0x3d4a5dec	0.049405977
34	0x3c30ab7c	0.010783073
35	0x3dfc0a0c	0.12306604
36	0x3f1af303	0.60527056
37	0x3e1d949d	0.15388723
38	0x3da341bc	0.07971522
39	0x3e6b8605	0.23000343
40	0x3e35c911	0.17752482
41	0x3d8d6f88	0.069060385
42	0x3d0307be	0.031989805
43	0x3e14cd84	0.14531523
44	0x3e508fef	0.20367406
45	0x3e82ddc8	0.2555983
46	0x3c6d6dad	0.014491481
47	0x3debed96	0.11519925
48	0x3dcbfd15	0.09960381
49	0x3d27e7c3	0.04099251
50	0x3ddee6a1	0.10883833
51	0x3ea853e0	0.32876492
52	0xbd124b31	-0.03571624
53	0xbe2b4893	-0.16726904
54	0xbe80b410	-0.25137377
55	0x3eb30a00	0.34968567
56	0x3cbc9b31	0.02302322
57	0x3dc28cae	0.09499489
58	0x3d576803	0.052589428
59	0x3d2edf90	0.042693675
60	0x3dfe4125	0.12414769
61	0x3e65e88b	0.2245199
62	0x3d275513	0.040852617
63	0x3d0499f6	0.03237339

features.7.block.2.fc1.bias f4 [32]
0	0x2f2f987d	1.5970332e-10
1	0xb18497f8	-3.8589825e-09
2	0xb21bce6f	-9.069125e-09
3	0xb444a60a	-1.8314327e-07
4	0xb4666ad7	-2.1459287e-07
5	0x306e4615	8.668349e-10
6	0xb31ac9de	-3.6039516e-08
7	0xb2047c89	-7.711727e-09
8	0x32e1e9a2	2.6299691e-08
9	0x3d3447f9	0.04401395
10	0xbc015208	-0.007893093
11	0xb2ed11b4	-2.7598482e-08
12	0x3e9f55c1	0.31120113
13	0x32b5b184	2.1151898e-08
14	0x3280bb38	1.4986298e-08
15	0x3ce36a6a	0.027760703
16	0xb5eb2b13	-1.7521401e-06
17	0x32ae8238	2.0315483e-08
18	0xbd8ffc46	-0.07030539
19	0x32ef1b81	2.783577e-08
20	0x3cdd5990	0.027020246
21	0x3220293f	9.322604e-09
22	0xbd2daace	-0.04239922
23	0xb35578b9	-4.9702724e-08
24	0xb2a15ea8	-1.8785911e-08
25	0x30a8435b	1.2242752e-09
26	0xb3045ecd	-3.0819866e-08
27	0xb20dbb31	-8.249843e-09
28	0xb0fa01fd	-1.8190459e-09
29	0x319548ee	4.344762e-09
30	0x3d329774	0.04360147
31	0x32943b77	1.7256509e-08

features.8.block.2.fc1.bias f4 [40]
0	0x3e223bee	0.15843174
1	0x3da5d793	0.08097758
2	0x3eab3d88	0.33445382
3	0x3f057eb7	0.52146477
4	0x3daa5a30	0.08317983
5	0x3e7b713b	0.24554913
6	0x3ddb71d3	0.107150696
7	0x3e3a8fae	0.18218872
8	0x3ddef729	0.10886986
9	0xbd3ce408	-0.046115905
10	0x3d7bcfa0	0.061477304
11	0x3df1e9b2	0.11812152
12	0x3eb50004	0.35351574
13	0x3e83c3d1	0.25735334
14	0x3e98e3b8	0.29861236
15	0x3e85a7d5	0.26104608
16	0x3d9d0313	0.07666602
17	0x3e9299ec	0.28633058
18	0x3e8aca92	0.27107674
19	0x3ccb79f5	0.024838427
20	0x3e0b2aa5	0.13590486
21	0x3e5dac2d	0.21647711
22	0x3ecf6b22	0.40511423
23	0x3f068ddb	0.52560204
24	0x3e930cc7	0.28720686
25	0x3dd83bfa	0.105583146
26	0x3e8aad37	0.27085277
27	0x3e8e6c16	0.27816838
28	0x3ee237cc	0.44183195
29	0x3d7ff221	0.06248677
30	0x3e818f8d	0.25304833
31	0x3e3753d7	0.17903076
32	0x3ef46f77	0.4774129
33	0x3daa3bfa	0.08312221
34	0x3e14c487	0.14528094
35	0x3eaa7e72	0.33299595
36	0x3e8da341	0.27663615
37	0x3ec7d318	0.3902824
38	0x3ebb3dea	0.36570674
39	0x3e62cdf3	0.22148876

classifier.6.bias f4 [3]
0	0x3a0b3543	0.0005310366
1	0xb6426449	-2.8966626e-06
2	0xba70e4a9	-0.00091893465

input_bias f4 [16]
0	0x4098ff2e	4.78115
1	0x4021d412	2.5285687
2	0x402669f2	2.6002164
3	0xbfebf94e	-1.8435457
4	0x4033be34	2.808484
5	0x402a42f7	2.6603372
6	0x3e544320	0.20728731
7	0xbd5331b7	-0.051561084
8	0x4029fa3b	2.6558979
9	0x40033a09	2.0504172
10	0x3ff7a415	1.9346949
11	0xbfcb9a95	-1.590655
12	0x3e8251b1	0.2545295
13	0x3f08518b	0.53249425
14	0x3f92b4d8	1.1461439
15	0xc05a9c2a	-3.4157815

hardswish_bias f4 [16]
0	0x3ebe8a4b	0.37214884
1	0x3fe6c553	1.8028969
2	0x404b9257	3.1808069
3	0x3e703a6e	0.23459789
4	0x3ebbbb9f	0.3666658
5	0x4047c62b	3.1214702
6	0x3e7a1aec	0.24424332
7	0x3f384f5c	0.7199609
8	0x3ff29918	1.895297
9	0x3e8a58fd	0.27021018
10	0x3e9f834c	0.3115486
11	0x3eaddb58	0.33956409
12	0x3e981e3f	0.29710576
13	0x3e9120f4	0.28345454
14	0x3e4e4661	0.20144035
15	0x3fd3cb2a	1.6546376

mul_bias f4 [16]
0	0x40aa9e1f	5.331802
1	0xc0e49b6c	-7.1439724
2	0xc0736278	-3.802885
3	0xc032d777	-2.794401
4	0xbf9185e2	-1.1368983
5	0x3f094c82	0.53632367
6	0xc09b6ee2	-4.8572855
7	0xbf00fcdc	-0.5038583
8	0xc12b5103	-10.707278
9	0xc07eea73	-3.9830596
10	0x3ec925e7	0.3928673
11	0xc030934d	-2.7589905
12	0xc0721def	-3.783077
13	0xc0224cfc	-2.5359488
14	0xbf90656b	-1.128095
15	0x4049a4e0	3.1506882

relu_3_bias f4 [24]
0	0xbeec1d39	-0.46116045
1	0xbf856ccf	-1.0423831
2	0x408b2873	4.3486876
3	0xbf659560	-0.89681053
4	0xbfc7321c	-1.5562167
5	0xc0181629	-2.3763525
6	0x3fab7548	1.3395166
7	0x40a68540	5.203766
8	0xc01c24d5	-2.439748
9	0xbf9e0fc4	-1.2348561
10	0xbcd48fcc	-0.025947474
11	0x3fdfb2f1	1.7476484
12	0x3f251fe9	0.64501816
13	0x3f384220	0.719759
14	0x40010fd2	2.0165906
15	0x3fe7d526	1.8111923
16	0x3fcf34a3	1.6187938
17	0xbea65bdd	-0.3249196
18	0x4016c175	2.3555577
19	0x40011ca1	2.0173724
20	0xbfc663d7	-1.5499219
21	0xbf7655ee	-0.9622487
22	0x3cb1ed2f	0.021719543
23	0xc0726008	-3.7871113

relu_5_bias f4 [24]
0	0xc09b764d	-4.858191
1	0x3f1281c1	0.5722924
2	0x3facb1d4	1.3491769
3	0x3ee509ef	0.4473414
4	0x3f06284a	0.52405226
5	0x406d720e	3.7100863
6	0xbf0dcb2c	-0.5538814
7	0x3fe05e68	1.752881
8	0xbed7eba4	-0.42171967
9	0xbee948a9	-0.45563248
10	0x3e441604	0.19149023
11	0xbf836832	-1.0266173
12	0xbf97a6a9	-1.1847736
13	0xbfa2733a	-1.2691414
14	0xbfa70fc9	-1.3051692
15	0x3fadd66d	1.3581063
16	0xbff75fc3	-1.9326099
17	0xc07d23e0	-3.9553146
18	0x3f35c4af	0.7100324
19	0xc04954ca	-3.1458
20	0xbf0dad57	-0.5534262
21	0xbe0c657a	-0.13710585
22	0x3f86f7b2	1.0544341
23	0xbeaa1d3b	-0.33225426

mul_1_bias f4 [40]
0	0x3ceae15a	0.02867191
1	0xbfe2c883	-1.7717441
2	0xbf4ac575	-0.79207546
3	0xc0292133	-2.6426513
4	0x3f8bf1c3	1.0933155
5	0x3fcf0714	1.6174035
6	0xbf3c20b3	-0.73487395
7	0xbf497c92	-0.78705704
8	0x401e0591	2.4690897
9	0x3f1d77be	0.6151084
10	0x3f3bcb1d	0.733568
11	0x3fc67403	1.5504154
12	0xbec316f4	-0.3810345
13	0xc045c316	-3.090032
14	0x403cb923	2.9487998
15	0xbe6a49e3	-0.22879748
16	0x401b20fa	2.4238877
17	0xc0a14212	-5.039315
18	0x407b4598	3.9261227
19	0x3ee98ec9	0.4561675
20	0xbd30818f	-0.043092307
21	0xbf43349d	-0.76252156
22	0x3ec2037e	0.3789329
23	0xc00d0e75	-2.2040074
24	0x3eecd1c5	0.4625379
25	0x3f28a008	0.6586919
26	0x3fdad365	1.7095762
27	0xbf228f51	-0.63499933
28	0xbf9c5807	-1.2214364
29	0x4026677e	2.6000667
30	0x3f1fd6f2	0.62437356
31	0xbf264421	-0.64947706
32	0xbe9f26d5	-0.31084314
33	0x3f8db7e2	1.1071742
34	0xc052f0ad	-3.2959397
35	0xbd85ff94	-0.06542888
36	0xbfed02fd	-1.8516537
37	0x3fcb9322	1.5904276
38	0xbf0927f4	-0.5357659
39	0xbf69a88e	-0.9127282

mul_2_bias f4 [40]
0	0xbecda48e	-0.40164608
1	0x3f8080b2	1.0039275
2	0xbe73417a	-0.23755446
3	0x3f152449	0.5825849
4	0x3e512458	0.2042402
5	0xbecdf617	-0.40226814
6	0xbf00e85c	-0.5035455
7	0xbf111e4d	-0.5668686
8	0xbf2048ab	-0.6261088
9	0xbdac3214	-0.08407989
10	0x3dd14534	0.102182776
11	0xbf0a2712	-0.53965867
12	0x3f3c2c2d	0.73504907
13	0xbf8dc8b7	-1.1076878
14	0x3f3ba5fe	0.7330016
15	0x3fdb2f60	1.7123833
16	0x3e57e8f6	0.21084961
17	0x3e940509	0.28910092
18	0x3e8595ce	0.26090854
19	0xbe495c5f	-0.19664143
20	0xbdbad05b	-0.09121772
21	0xbed430e3	-0.41443548
22	0xbe8de5c2	-0.27714354
23	0x3eabdd1c	0.3356713
24	0xbf16c13b	-0.58888596
25	0xbff4642f	-1.9093074
26	0x403500af	2.8281667
27	0x3f802d07	1.0013741
28	0x3d9a94fc	0.07547948
29	0x3f302d43	0.68819064
30	0x3efb9687	0.4913828
31	0x3eba83ad	0.36428586
32	0xbecdccb9	-0.40195253
33	0x3ead0095	0.33789507
34	0xbf9269b8	-1.1438513
35	0x3f7969b1	0.974269
36	0x3ea267f4	0.31719935
37	0xbf8962a0	-1.0733223
38	0x3ed467f1	0.4148555
39	0x3fac1f46	1.3447044

mul_3_bias f4 [40]
0	0x4048454d	3.1292298
1	0xbdd5c551	-0.10438026
2	0xbfae9c6b	-1.3641485
3	0xbf69f440	-0.9138832
4	0xbed377d4	-0.4130236
5	0xbe818a63	-0.25300893
6	0x3ea673df	0.32510278
7	0xbf89d260	-1.0767326
8	0xbeb9509b	-0.3619431
9	0x3d428c8c	0.047497317
10	0xbf27afaf	-0.65502447
11	0x3e11ce1f	0.14238785
12	0x3e3865d1	0.1800759
13	0xbec9b2e8	-0.39394307
14	0x3ed2995d	0.41132632
15	0x3eee3737	0.465265
16	0xbed9df76	-0.425533
17	0xbe54cdbc	-0.20781606
18	0xbfcb45e8	-1.5880709
19	0xbf39e593	-0.7261593
20	0x3fbfdc97	1.4989194
21	0x3f08edc9	0.5348783
22	0x3f8cad76	1.0990436
23	0xbf547fc4	-0.83007455
24	0xbe031577	-0.12801157
25	0x3f1f6c2e	0.62274444
26	0x4021905d	2.5244362
27	0x3f342fc5	0.7038539
28	0x404edebe	3.232345
29	0x3f45eb17	0.77311844
30	0xbf3c00ef	-0.73438925
31	0xbf1a2687	-0.6021504
32	0x3f0c9d40	0.54927444
33	0x3fbaed3e	1.460365
34	0xbf75c2cc	-0.9600036
35	0x3f7c3128	0.98512506
36	0x3d3e37b3	0.046439838
37	0xbfd5c97b	-1.6702112
38	0xbdd08886	-0.1018229
39	0xbf702890	-0.93811893

mul_4_bias f4 [48]
0	0x3e5880df	0.2114291
1	0xbe31e9c4	-0.17374331
2	0x3e693119	0.22772636
3	0xc0022d61	-2.0340197
4	0xbf188048	-0.5957074
5	0xbefbf216	-0.49208134
6	0xbdbd8d58	-0.09255475
7	0xbf25fe96	-0.6484159
8	0x40222fca	2.5341668
9	0x3c127e29	0.008941212
10	0xbefcaa48	-0.49348664
11	0x3f3e60a9	0.7436624
12	0xc055c5bd	-3.340194
13	0x3e492783	0.19643979
14	0x3e5caabb	0.21549504
15	0x3e5feda4	0.21867996
16	0xbf043c10	-0.5165415
17	0xbf39136e	-0.7229527
18	0xbf90396d	-1.1267525
19	0xbdeb76f2	-0.114972964
20	0xbfa10f85	-1.2582861
21	0x3f77e54a	0.9683424
22	0xbf51cdde	-0.81954753
23	0xbefb2ced	-0.49057713
24	0x3f5bd5d1	0.8587313
25	0x3efb34f8	0.4906385
26	0x3f8074eb	1.003568
27	0x3e87a0c7	0.2648985
28	0xbfa5351b	-1.2906832
29	0xbb89744a	-0.004194771
30	0xbd556625	-0.052099366
31	0xbfaecd6d	-1.3656441
32	0x3e0d1889	0.1377889
33	0xbf85bc88	-1.044816
34	0xbe5a2481	-0.21302988
35	0x3f35e565	0.71053153
36	0xbfc7a67a	-1.559768
37	0xbfbbb898	-1.4665709
38	0x3f85aaf7	1.0442799
39	0x3f511af0	0.8168173
40	0x3f77cebb	0.9679982
41	0xbee70d8e	-0.4512753
42	0x3e38b95a	0.18039456
43	0xbf2668f8	-0.6500392
44	0xbf50e3f8	-0.8159785
45	0x3dfc0ad4	0.12306753
46	0xbfaf43da	-1.3692582
47	0xbefb07c6	-0.49029368

mul_5_bias f4 [48]
0	0x3fe51fce	1.7900331
1	0xbd7780c2	-0.060425527
2	0xbf2cf8f4	-0.6756737
3	0x3f0d9bc3	0.553158
4	0xbf9c70ad	-1.2221886
5	0x3f0a3258	0.5398307
6	0xbe968701	-0.29399875
7	0xbec470df	-0.38367364
8	0x40239f62	2.556603
9	0xbe149f1e	-0.14513823
10	0xbba84ef6	-0.005136366
11	0x3f1f076c	0.621207
12	0xbe8906ac	-0.26762903
13	0xbf9616a9	-1.1725665
14	0xbea2d468	-0.31802678
15	0x3ea2f830	0.31829977
16	0xbec616fe	-0.38689417
17	0x3e8507fb	0.2598265
18	0x3e314f5a	0.17315426
19	0x3dfb6ff5	0.122772135
20	0xbea495b0	-0.32145452
21	0xbf44f56d	-0.7693699
22	0x3ed48fb0	0.41515875
23	0x3e5ce5bd	0.21572013
24	0x3f485bd9	0.7826515
25	0xbe4af4c6	-0.19819936
26	0x3d81016f	0.062991016
27	0x3e1bae9e	0.1520333
28	0x3f6ed10a	0.9328772
29	0x3e0e63a3	0.13905196
30	0x3e2b71ee	0.1674268
31	0x3e9c404f	0.30517814
32	0x3e58b006	0.21160898
33	0xbee8c2da	-0.4546116
34	0xbe6c3f78	-0.23071086
35	0xbe68fdc6	-0.22753057
36	0xbfdbd26c	-1.7173591
37	0xbe2876a6	-0.16451511
38	0x3e64f2e8	0.22358286
39	0x3f31a871	0.69397646
40	0x3f42d859	0.7611137
41	0x3f052212	0.5200511
42	0x3de54cd8	0.111962974
43	0x3ebdb563	0.3705245
44	0x3fa7b07a	1.3100731
45	0x3eaa76b4	0.33293688
46	0x3e95804a	0.2919944
47	0x3e36c447	0.17848311
